tuneurl_model_simpler2500.onnx (onnx, 95798 bytes, 10 tensors)

mlp_audio_1/dense_9_1/Cast/ReadVariableOp:0 f4 [112, 128]
00000000: 62b8 723d e28f c4bd f119 92bd 6023 05be
00000010: 5145 1dbe 7fa7 2bbb 33c2 183d 3cc9 d73d
00000020: e3ab 183e 726c c1bc 4004 08be 8551 e63d
00000030: 9f5c 16be 3949 f2bd 4c9e 143e c81e 043e
00000040: 777f 96bd f0a7 1cbd 1e0c 8fbd 3155 163b
00000050: 60c5 aa3d d182 d13d d50c 2a3e 553e 05be
00000060: a663 863d 773a 303d 8bf2 ebbd 1e94 cbbd
00000070: de2a c5bc 2d67 113e 5170 993c a8ad b3bd
00000080: 27ba 9e3d 88df a9bd 950f 003e b498 70bd
00000090: fc5c 30bd bfda 2a3d 4bf4 51bd 4899 3abb
000000a0: 42b4 003e a79e 213e bf4a d73d f0c1 e7bd
000000b0: e297 23be 7371 09be da61 073d df48 b4bc
000000c0: 1176 d8bb 5a2a 16bd 2494 d5bc 0d2d 45bd
000000d0: 155d 69bc 549d 013e f6d5 7c3d 184c b83c
000000e0: 0834 883d ce64 943d 72fa 6eb9 0af0 bbbd
000000f0: 7a12 d03d 1f5b d5bd 1df2 6abc ddc4 22be
00000100: 7dcf dbbc d8ad 93bd f264 4e3d 320f 1dbc
00000110: b8c2 2abc 76d9 b5bd b406 7f3a eab4 0f3e
00000120: aafb bb3d 897d aa3d e063 493d ab56 9dbd
00000130: 6277 a23d e4be 84bc 17ae b6bd 18b3 ce3c
00000140: 6216 4c3c 367a e3bd d5f9 0cbe 0427 103d
00000150: a4a2 cb3c fef6 96bc 6692 173b 2f3f d7bd
00000160: 5a8f 1abe e5b2 643c 22f6 84bd b248 a6ba
00000170: 1c81 0d3e 985a c43c 67cc a83d 9064 11be
00000180: 5fe1 b5bd ab47 8fbd d99d 4abc 3e91 0dbe
00000190: 092b 993d b8e7 24be 0bfe 56bd 2f81 90bd
000001a0: 216a 063e 692c 913d c606 2dbe 174b e43d
000001b0: fe71 793a 8ff5 b4bd c165 63bd 901f 23bd
000001c0: f113 a4bd 8a76 44bd fde4 debd e9ce a13d
000001d0: 1fb9 f5bd 3b99 b1bc 07f1 9dbb 0511 803d
000001e0: ea0d bcbc 0c8e 273c 6c81 b33d 3a72 e1bd
000001f0: c1d1 81bd 74be b33d 2cfd 20bd 8685 e13c
00000200: c0ac 0c3e 7f7b cd3d 05e5 a2bd 5bc9 8f3c
00000210: 36a6 a0bd bdd8 e4bd a245 583d 9331 ccbd
00000220: 6e1f 073d a64d 5cbd 02ff 633d 78b3 f1bd
00000230: 0783 31bc a6ae 3dbd 5936 7bbd da63 083d
00000240: 94ce b2bd 23d4 99bd 42c1 83bc 8422 82bc
00000250: 9acd 8d3d 1e01 c63c da31 dcbd 4ef8 3c3d
00000260: 7cdd cc3c 797b debd e791 47bd 0264 893d
00000270: af27 87bc c708 113d e37b b5bc 3fd7 ac3d
00000280: 5cea 6dbc ca09 ac3d 20f5 993d ea0f 813c
00000290: 95c9 eb3c 06f3 d03d fa05 b5bd ef78 9c3d
000002a0: e0d9 5c3d ac93 8abd eb8c 633d 6f0e 02be
000002b0: d466 0d3c a82a 9dbd 6a15 2a3d 7fe8 043d
000002c0: 374b eabc a9db c5bd c086 093e 4687 633d
000002d0: 53ed adbd 8f8c 093c bbbd dabd 2f82 c53d
000002e0: f6b5 743d cd65 cb3d 4702 753d ee3b f13d
000002f0: 45a8 c23d 5068 053d ab02 1c3d d2e4 553d
00000300: 0540 e7bc 8e49 b83d cb35 dc3d 5003 9b3d
00000310: 89b4 363d d1dc ccbd 57d5 febc c76f 6abc
00000320: b59f 6c3d 5cc0 14be c772 febb 2273 163e
00000330: 7890 9c3d 27c4 a1bd e7eb 013e e61c e1bc
00000340: 8115 c83c d919 b43d a814 66bc e914 cabc
00000350: baa3 0b3e 0bc8 99bd e60d 083c 84c5 c33d
00000360: 4f49 f8bc a92c edbd 2e74 12bd 4dae 32bd
00000370: 8cc5 8dbd 0017 c13c b4f4 ba3d b302 a0bc
00000380: ad2a 0ebd 36ef d9bd a086 a83c 6f62 b63d
00000390: 291a 4f3d d17b 263d cf3a c1bd 3f67 4abd
000003a0: 439b e13d 2b1b 893d 3e3c b03d 1a79 43bd
000003b0: eb97 97bc c9ef d0bd 59ab e33d 44b4 0dbb
000003c0: f54a b1bd c1a0 1b3e 8466 f1bc 696a 403d
000003d0: 3e50 113e fb76 1b3e 2c06 b3bd 5e98 4a3d
000003e0: 30be c23d e189 ee3c b9fc d9bd 370a 8abd
000003f0: 9ddf 66bd c35d 823d d4ce c53c 9bcf b63d
0.059257872 -0.09597756 -0.07133854 -0.13001776 -0.15358473 -0.0026192365 0.037294578 0.10536429
0.1490932 -0.023611281 -0.13282871 0.11246017 -0.1468377 -0.11830372 0.1451351 0.12902367
-0.07348531 -0.038246095 -0.06984733 0.0022938962 0.083384275 0.102300294 0.16606458 -0.13012059
0.06561975 0.043024506 -0.11520871 -0.099403605 -0.024068292 0.14199515 0.018730314 -0.08773357
0.077503495 -0.08294588 0.12505944 -0.05873938 -0.043057427 0.04171252 -0.051258367 -0.002847271
0.12568763 0.15783177 0.105123036 -0.113162875 -0.15975907 -0.13422184 0.033052303 -0.022007404
-0.0066058715 -0.036661483 -0.026071616 -0.048138667 -0.014243384 0.12657672 0.061727487 0.022497222
0.06650549 0.072457895 -0.00022790747 -0.09176643 0.10159774 -0.104177706 -0.014339951 -0.1589541
-0.026832337 -0.072108924 0.050389238 -0.009586142 -0.010422401 -0.08879368 0.0009728477 0.14033857
0.091788605 0.08324725 0.049167514 -0.07682546 0.07932927 -0.016204305 -0.08919924 0.025231883
0.012456508 -0.11107294 -0.13767178 0.03519346 0.024857827 -0.018428322 0.0023128032 -0.10510098
-0.15093747 0.013958667 -0.064922586 -0.001268646 0.13818783 0.02396898 0.08242112 -0.14198518
-0.08880877 -0.069960915 -0.012366735 -0.13824937 0.074789114 -0.16104019 -0.052488368 -0.0705589
0.13126422 0.07088549 -0.16897115 0.11147135 0.00095155824 -0.08835899 -0.055516962 -0.039825022
-0.08011616 -0.04796461 -0.1088352 0.07900793 -0.119982 -0.021679511 -0.0048199925 0.06253246
-0.022955853 0.010226738 0.0876492 -0.11008115 -0.063388355 0.087765604 -0.039303944 0.02752949
0.13737774 0.10033321 -0.07953838 0.017552068 -0.07844202 -0.11174152 0.052800782 -0.09970393
0.032988958 -0.05378499 0.055663116 -0.11801809 -0.010834462 -0.046309136 -0.061331127 0.03329835
-0.08730808 -0.07511165 -0.016083363 -0.015885599 0.06923981 0.024170455 -0.10751696 0.04613524
0.025007956 -0.10863394 -0.048723128 0.06708528 -0.016498415 0.03540876 -0.0221538 0.084394924
-0.014521208 0.084003046 0.07517457 0.015754659 0.028782645 0.10202603 -0.088390306 0.07640254
0.05391872 -0.067664474 0.05555431 -0.12700818 0.008630473 -0.07674152 0.04152433 0.032448288
-0.028600318 -0.096610375 0.1343031 0.05554893 -0.084925316 0.008395328 -0.106807195 0.09643971
0.059743844 0.09931526 0.059816625 0.11779009 0.09504751 0.032570183 0.038088482 0.052220173
-0.02822877 0.089984044 0.10752448 0.07568991 0.044605765 -0.10003055 -0.031107588 -0.014308876
0.057769496 -0.14526504 -0.0077651474 0.14692357 0.07644743 -0.07898741 0.12687646 -0.0274796
0.024424316 0.087939925 -0.014043011 -0.024668174 0.13636675 -0.07508858 0.008304095 0.095591575
-0.030308394 -0.11580784 -0.03575533 -0.043623257 -0.06922445 0.023570538 0.09128705 -0.019532537
-0.034708668 -0.10641329 0.020572007 0.089054935 0.050562058 0.040645424 -0.09435045 -0.04941487
0.11015942 0.06694635 0.0860524 -0.047722913 -0.018505057 -0.102019854 0.11116666 -0.002162234
-0.08656875 0.15198041 -0.029467829 0.04697648 0.14190766 0.15182106 -0.087414116 0.049461715
0.09508932 0.02911848 -0.10643906 -0.067402296 -0.056365598 0.0636554 0.024146475 0.08926316

mlp_audio_1/dense_9_1/BiasAdd/ReadVariableOp:0 f4 [128]
00000000: 6338 c438 1675 6fb8 13fc d5b9 6ae1 deb8
00000010: 14f5 0cb9 a125 6db9 01f2 9238 06ac bbb7
00000020: f135 7039 7198 48b7 3465 4fb8 aade be38
00000030: a1c4 1b39 83c6 20b9 6d46 59b8 16c7 aeb6
00000040: c370 f837 9863 b939 b8f4 0e38 78f2 30b9
00000050: 68ae 0c38 ea64 1538 3006 4b39 5823 2239
00000060: 5454 b7b8 d613 a3b8 a9d8 29b9 012a 0f38
00000070: 1f87 1439 fd8b 26b9 ada7 8038 2dfb 1db9
00000080: 9d7c 1f39 6b9f 9337 691b 0139 6d2e 4238
00000090: c3b3 49b9 28f2 3339 78d4 04b7 fbe1 93b8
000000a0: 6735 f238 098d 0a3a decf 48b8 f466 dbb8
000000b0: dfa1 e238 1269 02ba 48c5 55b8 01ed cfb8
000000c0: 09ef a4b6 7358 2bb9 b49b 1539 8ebd e138
000000d0: 2bc6 10b9 0074 44b8 c4bd 33b6 0c56 35b8
000000e0: fd85 c7b8 5c17 16b8 4377 0838 f79d 20b9
000000f0: 6c41 85b9 ace0 3ab8 2516 2f38 3e54 e7b9
00000100: 6506 81b9 c50b a5b9 0673 6439 e704 efb8
00000110: aabe e038 263c 33b7 0075 6c39 f3e0 a8b8
00000120: 9c6b cdb7 4af1 79b8 16e4 c1b9 1bb5 a838
00000130: e1c0 05b9 ea9a 17b9 2bb3 8638 bca7 0f39
00000140: 2ffb eeb6 5f89 7039 9ec6 acb6 81dd 3139
00000150: 9cf2 d438 5ecd e9b8 3d58 97b8 329b 1db9
00000160: c4b3 9839 8b27 24b8 5f92 4537 f758 3338
00000170: 7d6f ab36 6971 2639 518a 8fb8 eb3c afb9
00000180: 5d20 48b7 5449 e3b8 8893 fab8 c067 b33a
00000190: 7ccf c8b8 0d82 d2b8 db0e 5339 60fb 7239
000001a0: 8176 59b8 e2c4 84b9 19c2 6937 1bda 2039
000001b0: ceaa 34b9 bc07 3b37 275c 6ab8 e8bb fcb7
000001c0: e061 a838 b651 50b8 5169 d338 5ada 2eb8
000001d0: a946 7038 70bb 9a38 fa50 3138 de7b 0c3a
000001e0: 57f2 5fb9 aed5 b6b8 92ab a638 007e 043a
000001f0: 45f1 a2b8 abc2 e038 c885 0139 8c0f 8f39
9.356511e-05 -5.7091085e-05 -0.00040814336 -0.000106277716 -0.00013442739 -0.00022616099 7.006899e-05 -2.2372242e-05
0.00022908278 -1.1956422e-05 -4.94469e-05 9.1013804e-05 0.00014855202 -0.0001533274 -5.180242e-05 -5.2087807e-06
2.9616413e-05 0.00035360153 3.408335e-05 -0.00016874995 3.354103e-05 3.5618352e-05 0.00019361894 0.0001546269
-8.741827e-05 -7.7761404e-05 -0.00016197808 3.4132976e-05 0.00014164716 -0.00015883143 6.134748e-05 -0.00015066257
0.00015209844 1.7598e-05 0.0001231261 4.629644e-05 -0.0001923582 0.0001716098 -7.917282e-06 -7.0515984e-05
0.00011549406 0.0005285298 -4.7877307e-05 -0.0001046191 0.000108066706 -0.0004974763 -5.096689e-05 -9.9146746e-05
-4.915408e-06 -0.0001634078 0.00014267751 0.000107641434 -0.00013806733 -4.6838075e-05 -2.6783537e-06 -4.32339e-05
-9.514017e-05 -3.5784542e-05 3.2535998e-05 -0.00015317636 -0.0002541648 -4.4555098e-05 4.1743875e-05 -0.0004412252
-0.00024609562 -0.0003148002 0.00021786624 -0.00011397321 0.00010716666 -1.0683236e-05 0.000225503 -8.052764e-05
-2.4488014e-05 -5.9590944e-05 -0.00036981766 8.044598e-05 -0.00012755721 -0.00014458192 6.4229906e-05 0.00013700029
-7.1221943e-06 0.00022939358 -5.1491215e-06 0.00016962552 0.00010154137 -0.000111485584 -7.216677e-05 -0.00015030502
0.00029125635 -3.9137474e-05 1.1776195e-05 4.275978e-05 5.109176e-06 0.00015873242 -6.844535e-05 -0.00033423988
-1.1928464e-05 -0.00010837862 -0.00011948409 0.0013687536 -9.57539e-05 -0.00010037804 0.00020128062 0.00023172563
-5.1847197e-05 -0.0002532369 1.3933074e-05 0.0001534004 -0.00017229767 1.1147869e-05 -5.587577e-05 -3.0128242e-05
8.029095e-05 -4.9667164e-05 0.00010080881 -4.168819e-05 5.7286266e-05 7.378205e-05 4.2275504e-05 0.0005359034
-0.00021357216 -8.718237e-05 7.947454e-05 0.0005054176 -7.769702e-05 0.00010717412 0.00012352236 0.0002728667

mlp_audio_1/dense_11_1/Cast/ReadVariableOp:0 f4 [64, 2]
00000000: b3c7 ddbd 37d0 5e3e c32b a3be d776 b43d
00000010: 1d49 df3e 6559 96bd 7733 1ebd 68db bcbe
00000020: b80f b3be aa23 e63c a645 b13e 693e 77be
00000030: e8aa bb3e 47e6 d1bc 6546 8c3e 3369 bbbe
00000040: d14d f03c 1c61 a63e 68b3 9e3e fe3f a0bd
00000050: 9ab5 483e 46e7 fabd d3f2 d03e 1e93 5d3c
00000060: ddd1 873d 1c26 bebe 943c 6fbd b9ac c23d
00000070: 31fa e8bd 9918 5a3e 62bd eb3d 8db3 9ebe
00000080: 040b dcbd 9f27 d73d 2403 593d 9ceb 63be
00000090: 5099 5ebe 9c75 933e 9c5f 77be 9331 d93d
000000a0: 3b89 8bbe f7c1 353e c8d8 17be 4890 3dbe
000000b0: a070 94be abee 3f3c 567c a23e f618 ebbd
000000c0: 6d38 4f3e a408 adbe f405 ca3e a288 b8bb
000000d0: a162 82be 5b5f 8e3e d8fc 2bbe 1691 413e
000000e0: 62f1 b3bd cdfd 1e3e 4d3b bcbe 4d17 8abd
000000f0: c6fd 523d 967f b1be 4d5f 3bbe 7cf3 913d
00000100: bb1c 3c3e 1693 99be 9340 80bd 5f63 a73e
00000110: 0cbc 8dbe f375 bc3d 9808 be3e 3ede 49be
00000120: 4c61 833e 8c46 acbe da6f c83e b7a5 84be
00000130: 2058 9cbe 24c1 20be eac2 e4bd 9d58 a63e
00000140: 338f 4fbe e6ac 0a3e 4136 62be 15a8 8e3e
00000150: 676e 53bd 119b c1be 32a4 243e f09f d9be
00000160: 8ea4 95be 6d9b 30bd 0b39 673a 077a ab3e
00000170: 6449 debc 44c0 593e e6aa e53e 129f e23c
00000180: e470 103c dd2f b33e ce63 44be ff43 233e
00000190: 6780 633d cd85 a2be f809 c03e b717 95be
000001a0: ddd0 053e 47d8 89be 4609 b9be e475 503e
000001b0: 722b b5be 7564 96bd b8fe 923e 745b 83be
000001c0: 25b7 c63d 8dce 94be 76d2 153d f0fe 99be
000001d0: 616f 47be 9ed8 203e 7ffa 64be e245 b0bb
000001e0: 55c2 cebd aa95 223e b40b 873e fb03 35be
000001f0: 09d0 59be e8a7 2c3e 372d c43d 5877 983e
-0.10829105 0.21759115 -0.31869325 0.088117294 0.43610469 -0.073412694 -0.0386233 -0.36886144
-0.3497293 0.028093178 0.3462345 -0.24144901 0.3665383 -0.0256225 0.27397457 -0.36603698
0.02933398 0.32495964 0.3099625 -0.078247055 0.19600525 -0.12251143 0.4081026 0.013523845
0.06631825 -0.3713845 -0.05840738 0.095056005 -0.11375845 0.21298446 0.11510731 -0.3099636
-0.107442886 0.10505604 0.05298151 -0.22257847 -0.21738172 0.28800666 -0.24157566 0.10605159
-0.27253136 0.17749773 -0.14828789 -0.1851207 -0.28992176 0.011714618 0.31735486 -0.1147937
0.20236368 -0.33795655 0.39457667 -0.0056315223 -0.25465873 0.27807125 -0.16795671 0.18903002
-0.087862745 0.15526505 -0.36763993 -0.067427255 0.05151155 -0.34667653 -0.18298073 0.07126519
0.18370335 -0.2999503 -0.062623166 0.32693002 -0.2768253 0.092021845 0.37115932 -0.19713685
0.2566017 -0.33647573 0.39147836 -0.2590768 -0.30535984 -0.15698677 -0.111699894 0.32489482
-0.2026947 0.13542518 -0.22091009 0.2786261 -0.05161896 -0.3781362 0.1607826 -0.42504835
-0.29227108 -0.043116976 0.0008820451 0.33491537 -0.027134605 0.2126475 0.44856948 0.027663741
0.008815978 0.34997454 -0.19178697 0.15943907 0.055542376 -0.31742707 0.37507606 -0.29119655
0.13067956 -0.2692282 -0.36139888 0.20357472 -0.3538471 -0.073433794 0.2870996 -0.2565571
0.09702901 -0.29063836 0.036577664 -0.30077314 -0.19476081 0.15707633 -0.22361182 -0.0053794244
-0.1009566 0.15877405 0.26376116 -0.176773 -0.21270765 0.16860926 0.095789365 0.29778552

mlp_audio_1/dense_11_1/BiasAdd/ReadVariableOp:0 f4 [2]
00000000: 22fc b43c 1bfc b4bc
0.022092883 -0.02209287

mlp_audio_1/dense_10_1/Cast/ReadVariableOp:0 f4 [128, 64]
00000000: 3293 d53d 62c1 8c3d d9f5 2d3d 4450 f2bd
00000010: 479a 123e 0243 b3bd 95ae 6ebc 7644 353d
00000020: 525d 8c3c afbd dabd 41de 7dbd ded9 86bd
00000030: 7a3c a8bd baf9 853d 796a 8d3d 0f42 b0bb
00000040: b25b a6bd b8d0 0bbd e551 773d 8c55 23bd
00000050: 6668 f13b aa5a f8bb 8197 023e 3f24 91bd
00000060: db14 a0bb 823a 1cbd 821a 00be daee a1bc
00000070: e305 3f3d 6f2c b2bd 5df9 9e3c 4ebb d33c
00000080: 3539 1e3d 8cf4 c6bd 7c0c 1e3d a461 5cbc
00000090: 8596 ab3c c242 b9bd ffb6 6cbd 1553 f23d
000000a0: dc84 c03c 281f 073e a8ba b33d d602 153b
000000b0: 1113 e53d 084f b5bb dd5d fe3d 9d25 dbbd
000000c0: fc72 043e a8a1 fbbd 8cfa 20bd aa17 6cbd
000000d0: 0b42 abbc de09 6a3d ee3f f33d 6c4d b73d
000000e0: a546 1bbd 8c66 2e3d 427d 8c3d 5112 0a3e
000000f0: 25e5 ac3c 7561 99bd 2597 903d e9fc 0abd
00000100: db3b a23c c0e0 1abd 4153 b03d 8aaa 543d
00000110: b3c2 1abe 758c 99bd 9f54 593d 76ef 083e
00000120: e7aa 06bd c2f5 61bd bad3 063e f9a8 1ebd
00000130: 9ef6 2a3e 2fa2 4f3d 8aea 9bbd 2c00 3ebd
00000140: 23c4 933d 7c0f 55bd f237 a33d 7135 8c3d
00000150: c4c2 123c 3e37 bfbb 8d04 193d bcc8 f53d
00000160: 24bf 7bbd b72b 103a b7bb 123c 2080 f0bb
00000170: 2eb6 d8bd dcad 2bbd a781 063d dd33 3abd
00000180: 1cb6 b9bd c715 523d 4200 a7bd f35a c23c
00000190: 345e debd b3af 493d f559 043d 1c4c ed3d
000001a0: 28d5 b43d 8ed2 c6bd 8687 3f3d 4c63 0e3d
000001b0: 4aa2 b03d 7cde 043e a5d3 fcbd 170c 013d
000001c0: cb25 f4bd f206 483d f432 efbd 07f4 00be
000001d0: c3f7 f9bb 01a5 c43c 073e 4e3d 5ec4 1dbd
000001e0: 038f 113e c510 91bc f738 743d 0e91 d4bd
000001f0: 6a81 ce3d 19cf 0cbe 620f d03d 4167 8e3d
00000200: 7d63 cabc d92b 483d c20c 263e 9e99 9abd
00000210: 0f2d 00be 2cf4 2c3e 7eef 1cbe 2d5d e53d
00000220: 2153 ddbc cfce 903d fc42 b8bd fa57 6d3d
00000230: 5000 853d 9004 1a3d 5382 ca3c cf7d 2d3e
00000240: 05d9 093d d95a 1ebd 3776 fd3b dbce 003c
00000250: b7b4 373c d8c1 37bc 4d3a 4d3d 06ef 013e
00000260: 22ec eb3d 86d7 2a3e b0af 8dba 63d8 87bc
00000270: 8ed1 3e3c 3717 e2bd f4ef 5b3d 2f13 713c
00000280: 63f1 cfbd 6f1b f8bc f89b 493b d1b3 d83d
00000290: c130 d33d e9d4 413d bb8f cf3c 5389 01be
000002a0: 42cb 323d ffbc 96bd 734a 893d 176b 313c
000002b0: e24c d4bd a6c5 f6bd 1c7e cebc f319 edbd
000002c0: 37f5 09be 2bbc d23b d960 493d 27bf f93c
000002d0: 4604 f53d 982a cdbd 5ea7 22bb 6345 0a3e
000002e0: d565 253e 6292 dcbd 9391 8abc 4a81 e2bc
000002f0: da45 2fbc 283d 373e 4935 7c3c 27a3 9bbc
00000300: ac9b 01be cf55 1abe 37bf 1b3e 7054 a33c
00000310: 20f7 e8bd 62d2 7c3d c561 bebd 972a c0bc
00000320: 7dd8 093d da80 abbb 5c53 2f3e 55c4 813d
00000330: cbbe d6bd d5dc 783c 9548 bcbd f43f a8bc
00000340: 9ccd 40bd c469 273e 31ce c4bd 2281 dbbd
00000350: e876 66bd 5254 18bd 2df6 083c 88b6 b03d
00000360: f1cc 293e 15da 0e3d e373 b3bd 995c fbbd
00000370: 1652 653d e6d4 523d 5997 c7bd 0f7f 80bd
00000380: 50e2 fd3c 9c5a 03be 2d8e 10be b3f7 353d
00000390: 10ac fbbd 02b8 9bbb 99df 1c3d 70df 21be
000003a0: 8da1 e8bd ce40 b5bc e9f2 01bd e85e 373d
000003b0: 62e2 00be 18e2 1ebe d240 2d3c 3d9d 9b3d
000003c0: e36a 89bc 09e3 6b3d 5531 8a3d fbd1 2f3e
000003d0: 6bab ba3b e7da 6b3d 9e40 b9bd c846 aebd
000003e0: b17d 53bd c218 90bd 41c4 533d c502 a3bc
000003f0: 052b f6bd 1db3 c93d 14ca a53c deb2 b53c
0.10428466 0.06872822 0.042470787 -0.11831716 0.14316665 -0.08753015 -0.014567991 0.044254743
0.017134342 -0.106807105 -0.061979536 -0.065845236 -0.0821466 0.06541772 0.06905074 -0.0053789685
-0.08122958 -0.034134597 0.060380835 -0.039876506 0.0073671816 -0.0075791674 0.12753107 -0.070869915
-0.0048852987 -0.038141735 -0.12510112 -0.019767214 0.046636473 -0.08699881 0.019406015 0.02584615
0.038628776 -0.09714612 0.038586125 -0.013451014 0.020945797 -0.09045936 -0.057791706 0.11832253
0.023500852 0.13195479 0.08775836 0.0022737286 0.11185277 -0.005533103 0.12420247 -0.107005335
0.12934488 -0.12286693 -0.03930144 -0.057639755 -0.020905515 0.057138316 0.11877428 0.08950314
-0.03790917 0.042578265 0.068598285 0.1348355 0.021105358 -0.074892916 0.070600785 -0.0339326
0.019803932 -0.037811995 0.086096294 0.05192045 -0.15113334 -0.07497493 0.053059217 0.13372597
-0.03287783 -0.055166014 0.13166705 -0.038735364 0.1669564 0.05069178 -0.07613094 -0.046386883
0.072151445 -0.05201672 0.07969655 0.06846131 0.008957569 -0.005835443 0.037357856 0.12001178
-0.061461583 0.0005499678 0.0089558875 -0.0073394924 -0.10581623 -0.041913852 0.03283849 -0.045459617
-0.09067938 0.0512903 -0.08154346 0.023725009 -0.108578116 0.049239825 0.032312352 0.11586782
0.08829719 -0.09708129 0.046760105 0.034762666 0.08624704 0.12975496 -0.123450555 0.03150567
-0.11921271 0.04883475 -0.116796404 -0.12593089 -0.0076284125 0.024004461 0.050352123 -0.03851735
0.14214711 -0.017708192 0.05962464 -0.103792295 0.100832775 -0.13750876 0.10159184 0.06953288
-0.024705643 0.04886994 0.16215804 -0.075488314 -0.12517188 0.16890019 -0.15325734 0.111994125
-0.027017178 0.070706956 -0.08997151 0.05794523 0.064942 0.037602007 0.024720347 0.16942523
0.03365423 -0.038660858 0.0077350396 0.007861818 0.011212519 -0.01121565 0.050104428 0.12688836
0.11519648 0.16683778 -0.0010809805 -0.016582673 0.011646641 -0.11039584 0.053695634 0.014714046
-0.10153463 -0.030286519 0.003076313 0.10581172 0.103120334 0.047322188 0.02533709 -0.12650041
0.043650873 -0.07360267 0.06703653 0.010828755 -0.10366227 -0.12049417 -0.025206618 -0.11577215
-0.13472448 0.006431123 0.049164627 0.030486656 0.11963706 -0.1001789 -0.0024818997 0.13503031
0.16152127 -0.10770108 -0.016915118 -0.02764954 -0.010697806 0.17894423 0.015393564 -0.018998696
-0.1265704 -0.15071796 0.15209661 0.019937724 -0.1137526 0.061724074 -0.09295992 -0.023457808
0.033653725 -0.005233866 0.17121643 0.063362755 -0.104856096 0.015189369 -0.091935314 -0.020538308
-0.047071084 0.1634894 -0.096096404 -0.107179895 -0.05626574 -0.03718979 0.008359474 0.08628565
0.16582085 0.034875948 -0.08762338 -0.12273521 0.055986486 0.051472567 -0.09745664 -0.062742345
0.030991703 -0.12827533 -0.14116736 0.044425678 -0.12288678 -0.00475216 0.038299177 -0.15807891
-0.11358938 -0.022125628 -0.031725798 0.044768244 -0.12586358 -0.15515935 0.010574536 0.0759835
-0.0167746 0.057589564 0.067476906 0.17169945 0.005696704 0.05758181 -0.09045528 -0.08509594
-0.05163354 -0.07035972 0.051700834 -0.019898782 -0.12019924 0.09848616 0.02023796 0.022180017

mlp_audio_1/dense_10_1/BiasAdd/ReadVariableOp:0 f4 [64]
00000000: 65c1 c2b7 312a cb38 e611 48b9 e203 66b8
00000010: 6aad 86b8 9bf0 a3b8 cd81 0f37 e7ac 1eb8
00000020: ac43 7638 a7ed 88b8 3189 a638 3fd7 24b8
00000030: 0891 9838 3018 8db8 5be0 adb8 8098 8437
00000040: 6a27 7238 7fcb c937 070c 36b8 de4c 0138
00000050: aff1 fc38 8445 4fb8 19bb 35b7 4e2f 92b7
00000060: 96f0 82b8 0fc8 89b8 5d6f 9138 79c7 2a38
00000070: 60dd 0938 7de6 deb8 e4a1 1139 3a52 48b8
00000080: fb73 93b8 7c63 5eb8 d3ea 9438 763c ebb8
00000090: dd83 0f39 8af9 9cb8 f7b6 8037 f68a 0ab9
000000a0: 93a4 6eb9 d2cf a2b6 905d 7537 69ea 6938
000000b0: d789 73b5 bc4c 07b9 46a1 4638 4b6e 2db9
000000c0: 72d3 9138 acde a6b8 b9f0 b138 c088 4538
000000d0: c991 2cb8 8e92 8ab8 a914 a336 8eae 7eb8
000000e0: 0265 8c38 fbc5 4bb6 1259 1c38 37a4 49b9
000000f0: 63fd e636 db1c 9d38 82c7 f236 c3dc 9b38
-2.3216659e-05 9.687653e-05 -0.00019080154 -5.483989e-05 -6.421919e-05 -7.817262e-05 8.553686e-06 -3.7831163e-05
5.8713995e-05 -6.5292516e-05 7.941051e-05 -3.930111e-05 7.274939e-05 -6.727909e-05 -8.291072e-05 1.580664e-05
5.7734003e-05 2.4055827e-05 -4.3403383e-05 3.0827585e-05 0.000120613135 -4.9417387e-05 -1.0832003e-05 -1.7426584e-05
-6.243696e-05 -6.569933e-05 6.934882e-05 4.0716932e-05 3.2869517e-05 -0.00010628717 0.00013888587 -4.7760295e-05
-7.031109e-05 -5.3021577e-05 7.100929e-05 -0.00011216935 0.00013686666 -7.48514e-05 1.5343989e-05 -0.00013212473
-0.00022758757 -4.8521697e-06 1.4624922e-05 5.576984e-05 -9.072514e-07 -0.00012903189 4.7357076e-05 -0.00016539653
6.9535236e-05 -7.956973e-05 8.484856e-05 4.709582e-05 -4.114377e-05 -6.607651e-05 4.8601837e-06 -6.0720886e-05
6.6945344e-05 -3.0364597e-06 3.727625e-05 -0.00019230029 6.8840322e-06 7.491718e-05 7.235388e-06 7.432096e-05

mlp_audio_1/batch_normalization_7_1/batchnorm/sub:0 f4 [64]
00000000: 60a4 043f dda9 723e a57b 11be 1281 9fbd
00000010: 93b0 933e 51b5 f8bd f91d b1be 585c 83be
00000020: 3763 f73e 701c c1bb e800 9cbe 5804 84bd
00000030: e8e5 6cbe c912 3e3f 5706 a03e eaa9 04be
00000040: 9ae7 1b3e 04b3 963c f670 063e 625d 9a3e
00000050: 1992 8c3e ee85 b83d 4069 0b3f 32dd 54be
00000060: 546c a6bd 7c70 063e b896 413e f233 ff3e
00000070: 0ebf b83e 2645 1a3e e0c9 71bd 81a4 dd3e
00000080: 4e09 663d 8d7d 053d 9b77 d33e 0e7f f3be
00000090: 86df 7fbd 82d5 0fbd 1179 b13e afa2 9d3e
000000a0: 3835 213f 0f53 f23e ebdc 8a3d 62d5 cbbe
000000b0: b67d 8c3e d1d0 b83e 3cc7 8b3e b219 a23e
000000c0: ef95 083f cfe9 6f3e 2e4c 373e 6277 723e
000000d0: 64fc 99be 20b6 e33e a691 013f 664b 57bd
000000e0: f6be 8abe 52e7 49be d2c2 833e 815d 7a3e
000000f0: ce32 373e 2121 16be 767a d13e 1b0a a33e
0.51813316 0.2369761 -0.14207323 -0.0778829 0.28845653 -0.12143958 -0.3459318 -0.2565639
0.48317882 -0.0058932826 -0.3046944 -0.06446141 -0.23134577 0.74247414 0.31254837 -0.12955442
0.15225068 0.018395908 0.13129029 0.3014937 0.27455214 0.0900992 0.54457474 -0.20787504
-0.08126131 0.13128847 0.18905151 0.4984432 0.36083263 0.1506544 -0.059030414 0.4328957
0.056161217 0.032590438 0.4130219 -0.47557873 -0.062469028 -0.035115726 0.3466268 0.3078818
0.6297183 0.47328994 0.06780418 -0.39811236 0.2743966 0.36096814 0.2730044 0.3166023
0.5335378 0.23429035 0.17900154 0.23678353 -0.3007537 0.44474888 0.50612867 -0.05256214
-0.27098817 -0.19717148 0.25734574 0.24449731 0.17890474 -0.14661075 0.40913743 0.31843647

mlp_audio_1/batch_normalization_7_1/batchnorm/mul:0 f4 [64]
00000000: 1536 173f eebc 0c3f 1de5 493f 7b59 5a3f
00000010: d36a 083f f8e7 2c3f ca6f 733f bc78 1f3f
00000020: fd3d 233f 8e14 463f 7771 583f 13d3 393f
00000030: 5904 323f 5286 413f aaeb 1a3f b400 4a3f
00000040: eba5 543f db4f 503f 2d41 003f 3b32 1a3f
00000050: 60cf ff3e 7068 2a40 6471 0f3f ed93 563f
00000060: 6be1 3b3f 95c5 443f 82dc 0c3f 5d52 133f
00000070: 2d0e 293f 7dc4 213f 6113 483f 84f1 493f
00000080: 89f3 333f b559 153f 7246 f93e 207e 353f
00000090: 1d6c 303f 6972 253f e452 533f 8e22 063f
000000a0: 0169 173f 732e 033f 531e 5b3f 1bb9 4d3f
000000b0: 43a9 0f3f 3e88 153f 45a4 283f d69c 373f
000000c0: 00ef 0b3f d814 173f 4439 4f3f 9c68 1b3f
000000d0: 520c 5d3f f14f fa3e c0b1 323f 3846 1e3f
000000e0: 1bc6 393f c357 3c3f e00d 153f 51b4 4f3f
000000f0: 684b 2d3f c8a0 533f 973a 183f 22b7 533f
0.590669 0.54975784 0.78865224 0.85292786 0.53288 0.67541456 0.9509245 0.622936
0.6376646 0.77375114 0.84548134 0.725877 0.69537884 0.7559558 0.60515845 0.7890732
0.8306567 0.8137185 0.5009945 0.60232896 0.49962902 2.6626244 0.56032395 0.83819467
0.73390836 0.76863986 0.5502397 0.5754755 0.66037256 0.6319044 0.7815457 0.7888415
0.7029348 0.5834001 0.48686558 0.70895576 0.6891497 0.646277 0.82548356 0.52396476
0.591446 0.5124275 0.85593146 0.80360574 0.5611765 0.58411014 0.65875655 0.7172369
0.5466156 0.5901618 0.80946755 0.60706496 0.86346924 0.48889115 0.69802475 0.61825895
0.7256791 0.73571414 0.58224297 0.81134516 0.67693186 0.8266721 0.594644 0.82701313

mlp_audio_1/batch_normalization_6_1/batchnorm/sub:0 f4 [128]
00000000: b38f 2dbd 6a85 65bd 7a03 a73c 9331 5b3d
00000010: 0cf0 843b c7da 6ebd 3795 56bd a0cd e1bd
00000020: 1948 6dbd 4c65 8d3c 732c 37bd 9601 89bd
00000030: 527c 60bc ce3a c4bd 7004 a6bd c099 88bd
00000040: 821e ccbc 8e08 dbbc 366a a0bd b4c6 80bd
00000050: abfa ccbd baf1 92bd 804d 86bd da9b 06bd
00000060: 763e 06bd a968 0ebd 7243 81bd 5f5c a3bc
00000070: 186f b4bc 1343 e5bc 63ee 843c b7a3 fb3b
00000080: f2d5 0cbd d518 06bd e40e 58bd c7da a2bd
00000090: be7b 893d 4ece 58bd 9843 b4bd 1692 46bd
000000a0: a253 c7bd 560b acbc def3 2ebd 3bcf 8cbd
000000b0: 0094 043c a297 873d fb3d 83bd 23fc 9cbd
000000c0: e2db e93c 906b 9bbd e211 4dbd 100d e7bc
000000d0: faf5 863c 9d80 aabc cc0d 6ebd 1864 d7bd
000000e0: 3ed2 6cbd 605c 84bd 09bf 92bd 954d 24bd
000000f0: 0421 2fbd 295e d2bd 25c8 5abd b8fd 133d
00000100: e63e 973c 84af 9d3c 3592 98bc b33d dbbd
00000110: c354 42bc 98d0 a9bd d288 8cbd 138d 8abd
00000120: abe8 37bc 0223 a7bc f552 ecbc 0a0f 3bbd
00000130: eedb 8fbd c6ed 3dbd fbd7 7dbd 4af8 0c3b
00000140: 0b7f 85bd aab9 5c3d 9010 54bd 17cb a7bd
00000150: d148 6bbd d661 45bd 83ef 0fbd 2d3a 6cbd
00000160: 4ecb 6bbd 7198 10bd 04e5 49bd c2fe 36bc
00000170: 18e7 51bd 5c2f b8bd a581 61bd 3044 f8bc
00000180: 053b b0bc 1d47 16bd 39f1 5dbd a512 483d
00000190: 481a 3a3d ece6 623d 5438 313d 1786 81bd
000001a0: 23fc 89bd 2a6f 0b3d ccea 163d 3f48 f83c
000001b0: fa70 6fbc 6bf5 bcbd 0720 763d a410 183c
000001c0: 06ed afbc 654d 5fbd 5e55 80bd 8a0e fcbd
000001d0: 8a9b 57bc 3918 a2bd 56dc a2bc 3c50 94bc
000001e0: e101 10bd 0f46 a2bd c754 e3bd c68f ccbd
000001f0: bee5 04bd 067b bbbd e7a2 7abd 5425 43bd
-0.04237337 -0.056035437 0.0203874 0.053514075 0.004056936 -0.05831411 -0.052388396 -0.11025548
-0.057930086 0.017260216 -0.044720124 -0.066897556 -0.013701515 -0.095815286 -0.08106315 -0.066699505
-0.024916891 -0.026737478 -0.07832758 -0.062878996 -0.100087486 -0.07175012 -0.06557751 -0.032863475
-0.03277441 -0.03476778 -0.06311692 -0.019941507 -0.02202563 -0.027986085 0.016226953 0.0076794284
-0.03438372 -0.032738525 -0.052748576 -0.07951885 0.06713055 -0.052931122 -0.08801955 -0.048479162
-0.097327486 -0.0210015 -0.04271304 -0.068754636 0.008091927 0.066207185 -0.06408306 -0.07665279
0.028547231 -0.07588875 -0.050065883 -0.02820447 0.016474713 -0.02081328 -0.058118626 -0.10517138
-0.05781769 -0.06462932 -0.07165343 -0.04011305 -0.042756096 -0.10271866 -0.05341353 0.036130637
0.01846261 0.019248731 -0.018624404 -0.107051276 -0.011861029 -0.08291739 -0.06862034 -0.06765189
-0.011224906 -0.020402435 -0.02884815 -0.04566864 -0.0702437 -0.046369337 -0.061973553 0.0021510297
-0.06518372 0.053888 -0.051773608 -0.08193033 -0.05744249 -0.048189007 -0.035140526 -0.05767267
-0.057566933 -0.03530163 -0.049290672 -0.011169137 -0.05124578 -0.08993408 -0.05505528 -0.030305952
-0.021512518 -0.036688913 -0.054185126 0.048845906 0.04543522 0.055396006 0.04326661 -0.06324404
-0.067375444 0.03404156 0.036845013 0.030307887 -0.014614338 -0.09226497 0.060089137 0.009281311
-0.021475326 -0.05451717 -0.062662825 -0.123074606 -0.013159642 -0.07914776 -0.019880455 -0.018104665
-0.035158042 -0.07923519 -0.11100154 -0.0998836 -0.03244566 -0.09154324 -0.061190512 -0.04764302

mlp_audio_1/batch_normalization_6_1/batchnorm/mul:0 f4 [128]
00000000: 5bb4 b73f 6da1 ba3f 786e ce3f dfb0 bf3f
00000010: 114c cd3f 8a2b d83f 01f2 e43f 2bbf a13f
00000020: 40b0 e93f 2342 db3f 920d e73f 782d 0640
00000030: 1b03 d83f a0b6 c73f a33d aa3f f5a6 973f
00000040: cd1d 953f c945 0040 df53 ed3f 5fd6 a13f
00000050: 507c b53f 9fd5 f43f b4fc 0240 64d1 bd3f
00000060: 13eb da3f d797 f83f 6a96 ac3f 1c1e df3f
00000070: 6d8d e83f 9d96 e13f 4b1a 0140 a1f5 e93f
00000080: 364c 0f40 b1e0 963f b366 c53f 548d e83f
00000090: 0805 e23f 37c8 ee3f ef9f b83f 8d88 e23f
000000a0: 3c0d c13f 2447 da3f bdd3 c53f 35ff c63f
000000b0: a0b8 a73f 6791 f03f 0488 ce3f 13f9 d23f
000000c0: 3e7b c93f c07a ec3f 3f6e e63f 4dbb 0340
000000d0: b477 f23f 9ffa dd3f 3907 be3f 53ad da3f
000000e0: 1c08 ce3f 124f 943f 47b0 e13f ffbe cb3f
000000f0: a7fc cf3f e086 ec3f dc8f f63f 2772 e33f
00000100: cd95 df3f 26bf ed3f 3711 e03f ea11 c33f
00000110: afa6 f33f 0200 993f 1b01 0340 98d7 cc3f
00000120: add1 c43f ea54 e13f 015b ce3f 271b b33f
00000130: 4096 dc3f 2bf6 e13f 25fe c63f fc0f 0140
00000140: 0fc2 b23f 5e9f e13f a35c e73f 442b c23f
00000150: fb35 f63f 0beb bf3f 483d f43f 04fe ec3f
00000160: f5eb bb3f 6ee4 0340 9648 933f b0a6 db3f
00000170: b844 ed3f 21d3 b83f b80e d73f a104 f13f
00000180: 7c32 b73f 5a0c b93f 9ac0 d73f c171 0b40
00000190: e2b7 d43f d8d6 e33f 4931 f23f d959 ae3f
000001a0: 9761 c13f 1af7 eb3f 4cb8 0040 d3b9 e23f
000001b0: 5b32 ae3f d152 c93f 06e2 1a40 570c ab3f
000001c0: 91eb e33f dfbe df3f 8aa0 e43f 111c b13f
000001d0: f4a7 d23f 8d3c ba3f 0c06 c73f 0f61 e43f
000001e0: 53fb f73f 8bab d23f 4357 1040 a275 dd3f
000001f0: 7cf9 ed3f e827 f93f 6b18 d83f 064c ed3f
1.4351915 1.4580513 1.6127462 1.4975852 1.6038839 1.6888287 1.7886354 1.2636465
1.8256912 1.7129558 1.8051016 2.0965252 1.6875948 1.5602608 1.330006 1.1847826
1.164972 2.0042593 1.854122 1.2643546 1.4178562 1.9127692 2.0466738 1.4829526
1.7102989 1.9421338 1.3483403 1.7431064 1.816816 1.7624089 2.0172298 1.8278085
2.2390265 1.178732 1.5421966 1.816813 1.7657785 1.8654851 1.4423808 1.7697922
1.5082164 1.705296 1.5455242 1.5546633 1.3103218 1.8794373 1.6135259 1.6482261
1.5740736 1.847496 1.8002394 2.058307 1.894278 1.7342108 1.4845954 1.7084144
1.6096225 1.158663 1.763192 1.5917662 1.6248978 1.847866 1.9262652 1.7769212
1.746759 1.8573959 1.7505254 1.5239842 1.9035243 1.1953127 2.0469425 1.6003294
1.5376488 1.7604039 1.6121522 1.3992661 1.7233353 1.765325 1.5546309 2.0166006
1.3965472 1.762676 1.8075145 1.5169454 1.9235224 1.4993604 1.9081202 1.851502
1.4681383 2.0608172 1.1506526 1.7160244 1.8536596 1.4439431 1.6801367 1.8829538
1.4312282 1.4456894 1.6855652 2.178818 1.6618617 1.779994 1.8921291 1.3621169
1.5107907 1.8434784 2.0112486 1.7712959 1.3609117 1.5728399 2.4200454 1.3363141
1.7806264 1.7480124 1.7861493 1.383669 1.6457505 1.4549729 1.554872 1.784212
1.9373573 1.6458601 2.255326 1.7301524 1.8591762 1.9465303 1.6882452 1.8538826
